…
G().cuda()\n","model.load_state_dict(checkpoint['state_dict'])\n","recover_model = lambda: model.load_state_dict(checkpoint['state_dict'])"]},{"cell_type":"code","source":["model"],"metadata":{"colab":{"base_uri":"https://localhost:8080/"},"id":"MEXEAt-VJwHA","executionInfo":{"status":"ok","timestamp":1747291113473,"user_tz":-600,"elapsed":18,"user":{"displayName":"TINA WU","userId":"02701017118545556760"}},"outputId":"21acf882-ec23-4da7-8a8f-3e6e52d3f43b"},"execution_count":null,"outputs":[{"output_type":"execute_result","data":{"text/plain":["VGG(\n","  (backbone): Sequential(\n","    (conv0): Conv2d(3, 64, kernel_size=(3, 3), stride=(1, 1), padding=(1, 1), bias=False)\n","    (bn0): BatchNorm2d(64, eps=1e-05, momentum=0.1, affine=True, track_running_stats=True)\n","    (relu0): ReLU(inplace=True)\n","    (conv1): Conv2d(64, 128, kernel_size=(3, 3), stride=(1, 1), padding=(1, 1), bias=False)\n","    (bn1): BatchNorm2d(128, eps=1e-05, momentum=0.1, affine=True, track_running_stats=True)\n","    (relu1): ReLU(inplace=True)\n","    (pool0): MaxPool2d(kernel_size=2, stride=2, padding=0, dilation=1, ceil_mode=False)\n","    (conv2): Conv2d(128, 256, kernel_size=(3, 3), stride=(1, 1), padding=(1, 1), bias=False)\n","    (bn2): BatchNorm2d(256, eps=1e-05, momentum=0.1, affine=True, track_running_stats=True)\n","    (relu2): ReLU(inplace=True)\n","    (conv3): Conv2d(256, 256, kernel_size=(3, 3), stride=(1, 1), padding=(1, 1), bias=False)\n","    (bn3): BatchNorm2d(256, eps=1e-05, momentum=0.1, affine=True, track_running_stats=True)\n","    (relu3): ReLU(inplace=True)\n","    (pool1): MaxPool2d(kernel_size=2, stride=2, padding=0, dilation=1, ceil_mode=False)\n","    (conv4): Conv2d(256, 512, kernel_size=(3, 3), stride=(1, 1), padding=(1, 1), bias=False)\n","    (bn4): BatchNorm2d(512, eps=1e-05, momentum=0.1, affine=True, track_running_stats=True)\n","    (relu4): ReLU(inplace=True)\n","    (conv5): Conv2d(512, 512, kernel_size=(3, 3), stride=(1, 1), padding=(1, 1), bias=False)\n","    (bn5): BatchNorm2d(512, eps=1e-05, momentum=0.1, affine=True, track_running_stats=True)\n","    (relu5): ReLU(inplace=True)\n","    (pool2): MaxPool2d(kernel_size=2, stride=2, padding=0, dilation=1, ceil_mode=False)\n","    (conv6): Conv2d(512, 512, kernel_size=(3, 3), stride=(1, 1), padding=(1, 1), bias=False)\n","    (bn6): BatchNorm2d(512, eps=1e-05, momentum=0.1, affine=True, track_running_stats=True)\n","    (relu6): ReLU(inplace=True)\n","    (conv7): Conv2d(512, 512, kernel_size=(3, 3), stride=(1, 1), padding=(1, 1), bias=False)\n","    (bn7): BatchNorm2d(512, eps=1e-05, momentum=0.1, affine=True, track_running_stats=True)\n","    (relu7): ReLU(inplace=True)\n","    (pool3): MaxPool2d(kernel_size=2, stride=2, padding=0, dilation=1, ceil_mode=False)\n","  )\n","  (classifier): Linear(in_features=512, out_features=10, bias=True)\n",")"]},"metadata":{},"execution_count":12}]},{"cell_type":"code","execution_count":null,"metadata":{"id":"ZxBWrQIeoSu6","colab":{"base_uri":"https://localhost:8080/","height":214},"executionInfo":{"status":"error","timestamp":1751280576626,"user_tz":-600,"elapsed":80,"user":{"displayName":"TINA WU","userId":"02701017118545556760"}},"outputId":"01291c2
…
